…
    "    return ResNet(BasicBlock, [3, 4, 6, 3], num_classes=1000)\n",
    "\n",
    "print(\"ResNet-34 모델 클래스 및 함수 정의 완료!\")"
   ]
  },
  {
   "cell_type": "code",
   "execution_count": 40,
   "id": "a0ebd1fa-1374-4a37-8f2e-a4ea2661a9b7",
   "metadata": {},
   "outputs": [
    {
     "data": {
      "text/plain": [
       "==========================================================================================\n",
       "Layer (type:depth-idx)                   Output Shape              Param #\n",
       "==========================================================================================\n",
       "ResNet                                   [1, 1000]                 --\n",
       "├─Conv2d: 1-1                            [1, 64, 112, 112]         9,408\n",
       "├─BatchNorm2d: 1-2                       [1, 64, 112, 112]         128\n",
       "├─ReLU: 1-3                              [1, 64, 112, 112]         --\n",
       "├─MaxPool2d: 1-4                         [1, 64, 56, 56]           --\n",
       "├─Sequential: 1-5                        [1, 64, 56, 56]           --\n",
       "│    └─BasicBlock: 2-1                   [1, 64, 56, 56]           --\n",
       "│    │    └─Conv2d: 3-1                  [1, 64, 56, 56]           36,864\n",
       "│    │    └─BatchNorm2d: 3-2             [1, 64, 56, 56]           128\n",
       "│    │    └─ReLU: 3-3                    [1, 64, 56, 56]           --\n",
       "│    │    └─Conv2d: 3-4                  [1, 64, 56, 56]           36,864\n",
       "│    │    └─BatchNorm2d: 3-5             [1, 64, 56, 56]           128\n",
       "│    │    └─Sequential: 3-6              [1, 64, 56, 56]           --\n",
       "│    │    └─ReLU: 3-7                    [1, 64, 56, 56]           --\n",
       "│    └─BasicBlock: 2-2                   [1, 64, 56, 56]           --\n",
       "│    │    └─Conv2d: 3-8                  [1, 64, 56, 56]           36,864\n",
       "│    │    └─BatchNorm2d: 3-9             [1, 64, 56, 56]           128\n",
       "│    │    └─ReLU: 3-10                   [1, 64, 56, 56]           --\n",
       "│    │    └─Conv2d: 3-11                 [1, 64, 56, 56]           36,864\n",
       "│    │    └─BatchNorm2d: 3-12            [1, 64, 56, 56]           128\n",
       "│    │    └─Sequential: 3-13             [1, 64, 56, 56]           --\n",
       "│    │    └─ReLU: 3-14                   [1, 64, 56, 56]           --\n",
       "│    └─BasicBlock: 2-3                   [1, 64, 56, 56]           --\n",
       "│    │    └─Conv2d: 3-15                 [1, 64, 56, 56]           36,864\n",
       "│    │    └─BatchNorm2d: 3-16            [1, 64, 56, 56]           128\n",
       "│    │    └─ReLU: 3-17                   [1, 64, 56, 56]           --\n",
       "│    │    └─Conv2d: 3-18                 [1, 64, 56, 56]           36,864\n",
       "│    │    └─BatchNorm2d: 3-19            [1, 64, 56, 56]           128\n",
       "│    │    └─Sequential: 3-20             [1, 64, 56, 56]           --\n",
       "│    │    └─ReLU: 3-21                   [1, 64, 56, 56]           --\n",
       "├─Sequential: 1-6                        [1, 128, 28, 28]          --\n",
       "│    └─BasicBlock: 2-4                   [1, 128, 28, 28]          --\n",
       "│    │    └─Conv2d: 3-22                 [1, 128, 28, 28]          73,728\n",
       "│    │    └─BatchNorm2d: 3-23            [1, 128, 28, 28]          256\n",
       "│    │    └─ReLU: 3-24                   [1, 128, 28, 28]          --\n",
       "│    │    └─Conv2d: 3-25                 [1, 128, 28, 28]          147,456\n",
       "│    │    └─BatchNorm2d: 3-26            [1, 128, 28, 28]          256\n",
       "│    │    └─Sequential: 3-27             [1, 128, 28, 28]          8,448\n",
       "│    │    └─ReLU: 3-28                   [1, 128, 28, 28]          --\n",
       "│    └─BasicBlock: 2-5                   [1, 128, 28, 28]          --\n",
       "│    │    └─Conv2d: 3-29                 [1, 128, 28, 28]          147,456\n",
       "│    │    └─BatchNorm2d: 3-30            [1, 128, 28, 28]          256\n",
       "│    │    └─ReLU: 3-31                   [1, 128, 28, 28]          --\n",
       "│    │    └─Conv2d: 3-32                 [1, 128, 28, 28]          147,456\n",
       "│    │    └─BatchNorm2d: 3-33            [1, 128, 28, 28]          256\n",
       "│    │    └─Sequential: 3-34             [1, 128, 28, 28]          --\n",
       "│    │    └─ReLU: 3-35                   [1, 128, 28, 28]          --\n",
       "│    └─BasicBlock: 2-6                   [1, 128, 28, 28]          --\n",
       "│    │    └─Conv2d: 3-36                 [1, 128, 28, 28]          147,456\n",
       "│    │    └─BatchNorm2d: 3-37            [1, 128, 28, 28]          256\n",
       "│    │    └─ReLU: 3-38                   [1, 128, 28, 28]          --\n",
       "│    │    └─Conv2d: 3-39                 [1, 128, 28, 28]          147,456\n",
       "│    │    └─BatchNorm2d: 3-40            [1, 128, 28, 28]          256\n",
       "│    │    └─Sequential: 3-41             [1, 128, 28, 28]          --\n",
       "│    │    └─ReLU: 3-42                   [1, 128, 28, 28]          --\n",
       "│    └─BasicBlock: 2-7                   [1, 128, 28, 28]          --\n",
       "│    │    └─Conv2d: 3-43                 [1, 128, 28, 28]          147,456\n",
       "│    │    └─BatchNorm2d: 3-44            [1, 128, 28, 28]          256\n",
       "│    │    └─ReLU: 3-45                   [1, 128, 28, 28]          --\n",
       "│    │    └─Conv2d: 3-46                 [1, 128, 28, 28]          147,456\n",
       "│    │    └─BatchNorm2d: 3-47            [1, 128, 28, 28]          256\n",
       "│    │    └─Sequential: 3-48             [1, 128, 28, 28]          --\n",
       "│    │    └─ReLU: 3-49                   [1, 128, 28, 28]          --\n",
       "├─Sequential: 1-7                        [1, 256, 14, 14]          --\n",
       "│    └─BasicBlock: 2-8                   [1, 256, 14, 14]          --\n",
       "│    │    └─Conv2d: 3-50                 [1, 256, 14, 14]          294,912\n",
       "│    │    └─BatchNorm2d: 3-51            [1, 256, 14, 14]          512\n",
       "│    │    └─ReLU: 3-52                   [1, 256, 14, 14]          --\n",
       "│    │    └─Conv2d: 3-53                 [1, 256, 14, 14]          589,824\n",
       "│    │    └─BatchNorm2d: 3-54            [1, 256, 14, 14]          512\n",
       "│    │    └─Sequential: 3-55             [1, 256, 14, 14]          33,280\n",
       "│    │    └─ReLU: 3-56                   [1, 256, 14, 14]          --\n",
       "│    └─BasicBlock: 2-9                   [1, 256, 14, 14]          --\n",
       "│    │    └─Conv2d: 3-57                 [1, 256, 14, 14]          589,824\n",
       "│    │    └─BatchNorm2d: 3-58            [1, 256, 14, 14]          512\n",
       "│    │    └─ReLU: 3-59                   [1, 256, 14, 14]          --\n",
       "│    │    └─Conv2d: 3-60                 [1, 256, 14, 14]          589,824\n",
       "│    │    └─BatchNorm2d: 3-61            [1, 256, 14, 14]          512\n",
       "│    │    └─Sequential: 3-62             [1, 256, 14, 14]          --\n",
       "│    │    └─ReLU: 3-63                   [1, 256, 14, 14]          --\n",
       "│    └─BasicBlock: 2-10                  [1, 256, 14, 14]          --\n",
       "│    │    └─Conv2d: 3-64                 [1, 256, 14, 14]          589,824\n",
       "│    │    └─BatchNorm2d: 3-65            [1, 256, 14, 14]          512\n",
       "│    │    └─ReLU: 3-66                   [1, 256, 14, 14]          --\n",
       "│    │    └─Conv2d: 3-67                 [1, 256, 14, 14]          589,824\n",
       "│    │    └─BatchNorm2d: 3-68            [1, 256, 14, 14]          512\n",
       "│    │    └─Sequential: 3-69             [1, 256, 14, 14]          --\n",
       "│    │    └─ReLU: 3-70                   [1, 256, 14, 14]          --\n",
       "│    └─BasicBlock: 2-11                  [1, 256, 14, 14]          --\n",
       "│    │    └─Conv2d: 3-71                 [1, 256, 14, 14]          589,824\n",
       "│    │    └─BatchNorm2d: 3-72            [1, 256, 14, 14]          512\n",
       "│    │    └─ReLU: 3-73                   [1, 256, 14, 14]          --\n",
       "│    │    └─Conv2d: 3-74                 [1, 256, 14, 14]          589,824\n",
       "│    │    └─BatchNorm2d: 3-75            [1, 256, 14, 14]          512\n",
       "│    │    └─Sequential: 3-76             [1, 256, 14, 14]          --\n",
       "│    │    └─ReLU: 3-77                   [1, 256, 14, 14]          --\n",
       "│    └─BasicBlock: 2-12                  [1, 256, 14, 14]          --\n",
       "│    │    └─Conv2d: 3-78                 [1, 256, 14, 14]          589,824\n",
       "│    │    └─BatchNorm2d: 3-79            [1, 256, 14, 14]          512\n",
       "│    │    └─ReLU: 3-80                   [1, 256, 14, 14]          --\n",
       "│    │    └─Conv2d: 3-81                 [1, 256, 14, 14]          589,824\n",
       "│    │    └─BatchNorm2d: 3-82            [1, 256, 14, 14]          512\n",
       "│    │    └─Sequential: 3-83             [1, 256, 14, 14]          --\n",
       "│    │    └─ReLU: 3-84                   [1, 256, 14, 14]          --\n",
       "│    └─BasicBlock: 2-13                  [1, 256, 14, 14]          --\n",
       "│    │    └─Conv2d: 3-85                 [1, 256, 14, 14]          589,824\n",
       "│    │    └─BatchNorm2d: 3-86            [1, 256, 14, 14]          512\n",
       "│    │    └─ReLU: 3-87                   [1, 256, 14, 14]          --\n",
       "│    │    └─Conv2d: 3-88                 [1, 256, 14, 14]          589,824\n",
       "│    │    └─BatchNorm2d: 3-89            [1, 256, 14, 14]          512\n",
       "│    │    └─Sequential: 3-90             [1, 256, 14, 14]          --\n",
       "│    │    └─ReLU: 3-91                   [1, 256, 14, 14]          --\n",
       "├─Sequential: 1-8                        [1, 512, 7, 7]            --\n",
       "│    └─BasicBlock: 2-14                  [1, 512, 7, 7]            --\n",
       "│    │    └─Conv2d: 3-92                 [1, 512, 7, 7]            1,179,648\n",
       "│    │    └─BatchNorm2d: 3-93            [1, 512, 7, 7]            1,024\n",
       "│    │    └─ReLU: 3-94                   [1, 512, 7, 7]            --\n",
       "│    │    └─Conv2d: 3-95                 [1, 512, 7, 7]            2,359,296\n",
       "│    │    └─BatchNorm2d: 3-96            [1, 512, 7, 7]            1,024\n",
       "│    │    └─Sequential: 3-97             [1, 512, 7, 7]            132,096\n",
       "│    │    └─ReLU: 3-98                   [1, 512, 7, 7]            --\n",
       "│    └─BasicBlock: 2-15                  [1, 512, 7, 7]            --\n",
       "│    │    └─Conv2d: 3-99                 [1, 512, 7, 7]            2,359,296\n",
       "│    │    └─BatchNorm2d: 3-100           [1, 512, 7, 7]            1,024\n",
       "│    │    └─ReLU: 3-101                  [1, 512, 7, 7]            --\n",
       "│    │    └─Conv2d: 3-102                [1, 512, 7, 7]            2,359,296\n",
       "│    │    └─BatchNorm2d: 3-103           [1, 512, 7, 7]            1,024\n",
       "│    │    └─Sequential: 3-104            [1, 512, 7, 7]            --\n",
       "│    │    └─ReLU: 3-105                  [1, 512, 7, 7]            --\n",
       "│    └─BasicBlock: 2-16                  [1, 512, 7, 7]            --\n",
       "│    │    └─Conv2d: 3-106                [1, 512, 7, 7]            2,359,296\n",
       "│    │    └─BatchNorm2d: 3-107           [1, 512, 7, 7]            1,024\n",
       "│    │    └─ReLU: 3-108                  [1, 512, 7, 7]            --\n",
       "│    │    └─Conv2d: 3-109                [1, 512, 7, 7]            2,359,296\n",
       "│    │    └─BatchNorm2d: 3-110           [1, 512, 7, 7]            1,024\n",
       "│    │    └─Sequential: 3-111            [1, 512, 7, 7]            --\n",
       "│    │    └─ReLU: 3-112                  [1, 512, 7, 7]            --\n",
       "├─AdaptiveAvgPool2d: 1-9                 [1, 512, 1, 1]            --\n",
       "├─Linear: 1-10                           [1, 1000]                 513,000\n",
       "==========================================================================================\n",
       "Total params: 21,797,672\n",
       "Trainable params: 21,797,672\n",
       "Non-trainable params: 0\n",
       "Total mult-adds (Units.GIGABYTES): 3.66\n",
       "==========================================================================================\n",
       "Input size (MB): 0.60\n",
…
